…
21.5s 17 /opt/conda/lib/python3.10/site-packages/sklearn/base.py:439: UserWarning: X does not have valid feature names, but LinearRegression was fitted with feature names
21.5s 18 warnings.warn(
21.6s 19 Difference in R2 Scores => 0.005035195138109572
25.6s 20 R2 Score =>  0.6534020677045955
26.1s 21 [LightGBM] [Warning] Unknown parameter: gamma
26.3s 22 R2 Score =>  0.6534020677045955
40.2s 23 Number of input features: 7
40.5s 24 Model: "sequential"
40.5s 25 _________________________________________________________________
40.5s 26 Layer (type)                Output Shape              Param #
40.5s 27 =================================================================
40.5s 28 dense (Dense)               (None, 24)                192
40.5s 29 
40.5s 30 dropout (Dropout)           (None, 24)                0
40.5s 31 
40.5s 32 dense_1 (Dense)             (None, 16)                400
40.5s 33 
40.5s 34 dropout_1 (Dropout)         (None, 16)                0
40.5s 35 
40.5s 36 dense_2 (Dense)             (None, 10)                170
40.5s 37 
40.5s 38 dropout_2 (Dropout)         (None, 10)                0
40.5s 39 
40.5s 40 dense_3 (Dense)             (None, 5)                 55
40.5s 41 
40.5s 42 dense_4 (Dense)             (None, 3)                 18
40.5s 43 
40.5s 44 dense_5 (Dense)             (None, 1)                 4
40.5s 45 
40.5s 46 =================================================================
40.5s 47 Total params: 839 (3.28 KB)
40.6s 48 Trainable params: 839 (3.28 KB)
40.6s 49 Non-trainable params: 0 (0.00 Byte)
40.6s 50 _________________________________________________________________
40.8s 51 Epoch 1/100
42.5s 52 1/20 [>.............................] - ETA: 27s - loss: 77917.468820/20 [==============================] - 2s 16ms/step - loss: 84081.5938 - val_loss: 84335.2266
…
